…
ecay=0.01, wp_iters=500, distributed=False, dist_url='env://', world_size=1, local_rank=-1)
World size: 1
LOCAL RANK:  -1
LOCAL_PROCESS_RANL:  -1
Image size: 64
Pixel mean: [0.0, 0.0, 0.0]
Pixel std:  [1.0, 1.0, 1.0]
=================== Dataset Information ===================
Dataset:  celebA
- train dataset size :  197599
 =================== VAE Model info. =================== 
 Use EMA trick for VQ-VAE ...
 - Load checkpoint for VQ-VAE from the checkpoint : weights/celebA/vqvae/checkpoint-99_psnr_27.79_ssim_0.8961.pth ...
VQVAE(
  (encoder): VqVaeEncoder(
    (layer_1): Sequential(
      (0): Conv2d(3, 64, kernel_size=(4, 4), stride=(2, 2), padding=(1, 1))
      (1): ReLU(inplace=True)
    )
    (layer_2): Sequential(
      (0): Conv2d(64, 128, kernel_size=(4, 4), stride=(2, 2), padding=(1, 1))
      (1): ReLU(inplace=True)
    )
    (layer_3): ResStage(
      (res_blocks): Sequential(
        (0): ResBlock(
          (res_layer): Sequential(
            (0): Conv2d(128, 64, kernel_size=(1, 1), stride=(1, 1))
            (1): ReLU(inplace=True)
            (2): Conv2d(64, 64, kernel_size=(3, 3), stride=(1, 1), padding=(1, 1))
            (3): ReLU(inplace=True)
            (4): Conv2d(64, 128, kernel_size=(1, 1), stride=(1, 1))
            (5): ReLU(inplace=True)
          )
        )
        (1): ResBlock(
          (res_layer): Sequential(
            (0): Conv2d(128, 64, kernel_size=(1, 1), stride=(1, 1))
            (1): ReLU(inplace=True)
            (2): Conv2d(64, 64, kernel_size=(3, 3), stride=(1, 1), padding=(1, 1))
            (3): ReLU(inplace=True)
            (4): Conv2d(64, 128, kernel_size=(1, 1), stride=(1, 1))
            (5): ReLU(inplace=True)
          )
        )
      )
    )
    (layer_4): ResStage(
      (res_blocks): Sequential(
        (0): ResBlock(
          (res_layer): Sequential(
            (0): Conv2d(128, 64, kernel_size=(1, 1), stride=(1, 1))
            (1): ReLU(inplace=True)
            (2): Conv2d(64, 64, kernel_size=(3, 3), stride=(1, 1), padding=(1, 1))
            (3): ReLU(inplace=True)
            (4): Conv2d(64, 128, kernel_size=(1, 1), stride=(1, 1))
            (5): ReLU(inplace=True)
          )
        )
        (1): ResBlock(
          (res_layer): Sequential(
            (0): Conv2d(128, 64, kernel_size=(1, 1), stride=(1, 1))
            (1): ReLU(inplace=True)
            (2): Conv2d(64, 64, kernel_size=(3, 3), stride=(1, 1), padding=(1, 1))
            (3): ReLU(inplace=True)
            (4): Conv2d(64, 128, kernel_size=(1, 1), stride=(1, 1))
            (5): ReLU(inplace=True)
          )
        )
      )
    )
  )
  (decoder): VqVaeDecoder(
    (layer_1): ResStage(
      (res_blocks): Sequential(
        (0): ResBlock(
          (res_layer): Sequential(
            (0): Conv2d(64, 64, kernel_size=(1, 1), stride=(1, 1))
            (1): ReLU(inplace=True)
            (2): Conv2d(64, 64, kernel_size=(3, 3), stride=(1, 1), padding=(1, 1))
            (3): ReLU(inplace=True)
            (4): Conv2d(64, 128, kernel_size=(1, 1), stride=(1, 1))
            (5): ReLU(inplace=True)
          )
        )
        (1): ResBlock(
          (res_layer): Sequential(
            (0): Conv2d(128, 64, kernel_size=(1, 1), stride=(1, 1))
            (1): ReLU(inplace=True)
            (2): Conv2d(64, 64, kernel_size=(3, 3), stride=(1, 1), padding=(1, 1))
            (3): ReLU(inplace=True)
            (4): Conv2d(64, 128, kernel_size=(1, 1), stride=(1, 1))
            (5): ReLU(inplace=True)
          )
        )
      )
    )
    (layer_2): Sequential(
      (0): ConvTranspose2d(128, 64, kernel_size=(4, 4), stride=(2, 2), padding=(1, 1))
      (1): ReLU(inplace=True)
    )
    (layer_3): ResStage(
      (res_blocks): Sequential(
        (0): ResBlock(
          (res_layer): Sequential(
            (0): Conv2d(64, 32, kernel_size=(1, 1), stride=(1, 1))
            (1): ReLU(inplace=True)
            (2): Conv2d(32, 32, kernel_size=(3, 3), stride=(1, 1), padding=(1, 1))
            (3): ReLU(inplace=True)
            (4): Conv2d(32, 64, kernel_size=(1, 1), stride=(1, 1))
            (5): ReLU(inplace=True)
          )
        )
        (1): ResBlock(
          (res_layer): Sequential(
            (0): Conv2d(64, 32, kernel_size=(1, 1), stride=(1, 1))
            (1): ReLU(inplace=True)
            (2): Conv2d(32, 32, kernel_size=(3, 3), stride=(1, 1), padding=(1, 1))
            (3): ReLU(inplace=True)
            (4): Conv2d(32, 64, kernel_size=(1, 1), stride=(1, 1))
            (5): ReLU(inplace=True)
          )
        )
      )
    )
    (layer_4): Sequential(
      (0): ConvTranspose2d(64, 3, kernel_size=(4, 4), stride=(2, 2), padding=(1, 1))
      (1): ReLU(inplace=True)
    )
  )
  (codebook): CodeBook(
    (input_proj): Conv2d(128, 64, kernel_size=(1, 1), stride=(1, 1))
    (embedding): Embedding(512, 64)
  )
)
 =================== VAE Sampler info. =================== 
 - GPT sampler version : gpt_base
GPTSampler(
  (transformer): MiniGPT2(
    (tok_emb): Embedding(512, 768)
    (blocks): ModuleList(
      (0-11): 12 x TransformerBlock(
        (norm1): RMSNorm()
        (attn): Attention(
          (qkv_proj): Linear(in_features=768, out_features=2304, bias=True)
          (attn_drop): Dropout(p=0.1, inplace=False)
          (out_proj): Linear(in_features=768, out_features=768, bias=True)
          (proj_drop): Dropout(p=0.1, inplace=False)
        )
        (norm2): RMSNorm()
        (ffn): FFN(
          (fc1): Linear(in_features=768, out_features=3072, bias=True)
          (fc2): Linear(in_features=3072, out_features=768, bias=True)
          (drop): Dropout(p=0.1, inplace=False)
          (act): SiLU(inplace=True)
        )
      )
    )
    (norm): RMSNorm()
    (head): Linear(in_features=768, out_features=512, bias=False)
  )
)
=============== Step-2: Train Sampler  ===============
Epoch: [0 / 100]  [   0/3087]  eta: 0:33:29  lr: 0.000000  loss: 6.3591 (6.3591)  time: 0.6510  data: 0.0589  max mem: 13976
Epoch: [0 / 100]  [  20/3087]  eta: 0:19:19  lr: 0.000000  loss: 6.3304 (6.3336)  time: 0.3645  data: 0.0007  max mem: 14646
Epoch: [0 / 100]  [  40/3087]  eta: 0:18:51  lr: 0.000001  loss: 6.2121 (6.2721)  time: 0.3645  data: 0.0008  max mem: 14646
…
