…
e=64, model='vqvae', resume=None, optimizer='adam', lr=0.0006, weight_decay=0.0, wp_iters=500, distributed=False, dist_url='env://', world_size=1, local_rank=-1, output_dir='weights/celebA/vqvae')
World size: 1
LOCAL RANK:  -1
LOCAL_PROCESS_RANL:  -1
Image size: 64
Pixel mean: [0.0, 0.0, 0.0]
Pixel std:  [1.0, 1.0, 1.0]
Image size: 64
Pixel mean: [0.0, 0.0, 0.0]
Pixel std:  [1.0, 1.0, 1.0]
=================== Dataset Information ===================
Dataset:  celebA
- train dataset size :  197599
 Use EMA trick for VQ-VAE ...
VQVAE(
  (encoder): VqVaeEncoder(
    (layer_1): Sequential(
      (0): Conv2d(3, 64, kernel_size=(4, 4), stride=(2, 2), padding=(1, 1))
      (1): ReLU(inplace=True)
    )
    (layer_2): Sequential(
      (0): Conv2d(64, 128, kernel_size=(4, 4), stride=(2, 2), padding=(1, 1))
      (1): ReLU(inplace=True)
    )
    (layer_3): ResStage(
      (res_blocks): Sequential(
        (0): ResBlock(
          (res_layer): Sequential(
            (0): Conv2d(128, 64, kernel_size=(1, 1), stride=(1, 1))
            (1): ReLU(inplace=True)
            (2): Conv2d(64, 64, kernel_size=(3, 3), stride=(1, 1), padding=(1, 1))
            (3): ReLU(inplace=True)
            (4): Conv2d(64, 128, kernel_size=(1, 1), stride=(1, 1))
            (5): ReLU(inplace=True)
          )
        )
        (1): ResBlock(
          (res_layer): Sequential(
            (0): Conv2d(128, 64, kernel_size=(1, 1), stride=(1, 1))
            (1): ReLU(inplace=True)
            (2): Conv2d(64, 64, kernel_size=(3, 3), stride=(1, 1), padding=(1, 1))
            (3): ReLU(inplace=True)
            (4): Conv2d(64, 128, kernel_size=(1, 1), stride=(1, 1))
            (5): ReLU(inplace=True)
          )
        )
      )
    )
    (layer_4): ResStage(
      (res_blocks): Sequential(
        (0): ResBlock(
          (res_layer): Sequential(
            (0): Conv2d(128, 64, kernel_size=(1, 1), stride=(1, 1))
            (1): ReLU(inplace=True)
            (2): Conv2d(64, 64, kernel_size=(3, 3), stride=(1, 1), padding=(1, 1))
            (3): ReLU(inplace=True)
            (4): Conv2d(64, 128, kernel_size=(1, 1), stride=(1, 1))
            (5): ReLU(inplace=True)
          )
        )
        (1): ResBlock(
          (res_layer): Sequential(
            (0): Conv2d(128, 64, kernel_size=(1, 1), stride=(1, 1))
            (1): ReLU(inplace=True)
            (2): Conv2d(64, 64, kernel_size=(3, 3), stride=(1, 1), padding=(1, 1))
            (3): ReLU(inplace=True)
            (4): Conv2d(64, 128, kernel_size=(1, 1), stride=(1, 1))
            (5): ReLU(inplace=True)
          )
        )
      )
    )
  )
  (decoder): VqVaeDecoder(
    (layer_1): ResStage(
      (res_blocks): Sequential(
        (0): ResBlock(
          (res_layer): Sequential(
            (0): Conv2d(64, 64, kernel_size=(1, 1), stride=(1, 1))
            (1): ReLU(inplace=True)
            (2): Conv2d(64, 64, kernel_size=(3, 3), stride=(1, 1), padding=(1, 1))
            (3): ReLU(inplace=True)
            (4): Conv2d(64, 128, kernel_size=(1, 1), stride=(1, 1))
            (5): ReLU(inplace=True)
          )
        )
        (1): ResBlock(
          (res_layer): Sequential(
            (0): Conv2d(128, 64, kernel_size=(1, 1), stride=(1, 1))
            (1): ReLU(inplace=True)
            (2): Conv2d(64, 64, kernel_size=(3, 3), stride=(1, 1), padding=(1, 1))
            (3): ReLU(inplace=True)
            (4): Conv2d(64, 128, kernel_size=(1, 1), stride=(1, 1))
            (5): ReLU(inplace=True)
          )
        )
      )
    )
    (layer_2): Sequential(
      (0): ConvTranspose2d(128, 64, kernel_size=(4, 4), stride=(2, 2), padding=(1, 1))
      (1): ReLU(inplace=True)
    )
    (layer_3): ResStage(
      (res_blocks): Sequential(
        (0): ResBlock(
          (res_layer): Sequential(
            (0): Conv2d(64, 32, kernel_size=(1, 1), stride=(1, 1))
            (1): ReLU(inplace=True)
            (2): Conv2d(32, 32, kernel_size=(3, 3), stride=(1, 1), padding=(1, 1))
            (3): ReLU(inplace=True)
            (4): Conv2d(32, 64, kernel_size=(1, 1), stride=(1, 1))
            (5): ReLU(inplace=True)
          )
        )
        (1): ResBlock(
          (res_layer): Sequential(
            (0): Conv2d(64, 32, kernel_size=(1, 1), stride=(1, 1))
            (1): ReLU(inplace=True)
            (2): Conv2d(32, 32, kernel_size=(3, 3), stride=(1, 1), padding=(1, 1))
            (3): ReLU(inplace=True)
            (4): Conv2d(32, 64, kernel_size=(1, 1), stride=(1, 1))
            (5): ReLU(inplace=True)
          )
        )
      )
    )
    (layer_4): Sequential(
      (0): ConvTranspose2d(64, 3, kernel_size=(4, 4), stride=(2, 2), padding=(1, 1))
      (1): ReLU(inplace=True)
    )
  )
  (codebook): CodeBook(
    (input_proj): Conv2d(128, 64, kernel_size=(1, 1), stride=(1, 1))
    (embedding): Embedding(512, 64)
  )
)
=============== Step-1: Train VQ-VAE  ===============
Epoch: [0 / 200]  [   0/1543]  eta: 0:52:19  lr: 0.000000  rec_loss: 0.2446 (0.2446)  emb_loss: 0.0191 (0.0191)  loss: 0.2637 (0.2637)  perplexity: 2.6273 (2.6273)  time: 2.0344  data: 0.0794  max mem: 895
Epoch: [0 / 200]  [  20/1543]  eta: 0:02:52  lr: 0.000024  rec_loss: 0.2299 (0.2278)  emb_loss: 0.0002 (0.0011)  loss: 0.2301 (0.2289)  perplexity: 5.7917 (5.6396)  time: 0.0174  data: 0.0004  max mem: 895
…
